PyTorch Boot Camp/GermanyCarModel.pt (torch_old, 31632 bytes, 25 tensors)

embeds.0.weight f4 [40, 20]
0.28970993 -0.29265696 -0.30270323 0.70904505 -0.20288108 0.31766766 0.7681135 -0.6921132
-0.43182364 -0.0021955837 -0.5811181 -0.46714696 0.50834244 0.34877786 0.04016263 0.5615284
0.98905563 0.030867677 0.51538837 -1.8099296 0.6679496 0.505016 -0.12667695 -0.061531827
0.5633249 2.249239 1.5300558 -0.4161247 0.8936391 0.48832935 1.9849439 -0.03577473
-0.40352803 -0.36939076 -0.17516479 0.4933986 0.07306514 -0.02110373 0.46345827 -0.6282499
-0.18441579 0.10678901 -0.05777801 0.29130775 -0.38508472 0.23274405 0.45314938 0.73197216
-0.41866446 1.962554 -0.3747966 -0.011095252 0.47616634 -2.06766 1.0918512 -0.10655966
0.8734851 -0.8828225 -1.1289923 0.7671564 -0.89073735 -0.6797324 1.1052482 1.0069983
-0.30654976 -0.25830144 -0.3560698 -0.18439887 -1.1726172 1.1041692 -1.8182602 1.0612628
0.33014315 0.14293738 -1.5707338 -0.3170392 -0.027517144 -0.77373385 -0.6940684 -1.9263809
0.832852 -0.5582868 0.15414761 -0.74163985 1.182684 1.2159237 -1.2459806 1.1223683
-0.15586977 0.87791234 0.3933914 -0.94434595 0.82284987 -0.87069744 -0.66236484 0.1915914
-0.1523469 -0.46022972 0.25707763 -0.23880892 0.27039126 0.547166 -0.8609268 -0.20537086
-0.48609683 0.8212781 0.30157375 0.7242944 -1.234946 0.5053354 -1.0936012 -0.7413202
-0.45863467 0.5436922 0.04425441 -0.27197596 1.9263783 -0.045572337 -0.20227136 -2.1469696
-0.4516137 -0.7942305 0.67976683 -0.20862268 -0.7146793 1.72195 -1.2268667 -0.25776583
-0.69753414 -0.19592719 1.2793312 -1.6769983 0.5395232 -0.29573658 -1.0821786 -1.2714103
-0.22218616 -1.0817993 0.69438416 -0.245564 0.8851626 -1.3874754 0.5654712 -2.2096972
-0.6872963 0.42331016 0.06285842 -0.16767234 -0.1362746 -2.0587866 -0.6004804 -1.0772873
-1.2315339 0.23656495 -1.1925553 -1.0281024 -0.7443306 0.6947825 0.1379407 1.1617191
0.4401 -1.1358553 -0.7498363 -1.6250929 0.7963735 0.85173345 -0.8654644 0.46639708
-0.29397213 1.5561217 0.150888 -0.60654986 -0.856405 -0.70094234 0.16711214 -0.46190235
-0.99438953 -0.82339275 -1.1464723 0.35553837 1.8812855 -1.7463293 2.0761497 1.0469292
-0.62674314 -1.1281161 -0.80659944 -0.38553783 0.5682684 -0.46732077 -0.775217 1.3619726
-0.25346494 0.8495687 0.055685703 1.2342674 1.6138519 -0.87909377 0.9776473 1.4006573
0.6276848 -1.023967 -0.8908572 -0.44220793 -0.20864569 1.1445186 -0.16090903 1.6500673
-1.346216 -0.14815591 -0.36442062 0.034249343 0.8578118 0.81571823 -0.23532468 0.04436266
-0.63050795 0.3102408 -0.30084834 -0.5201854 1.3589976 0.07759871 -0.07619539 -0.21471602
0.5335063 0.9474708 -0.8557783 1.795206 1.3379686 0.058677837 -0.7921648 0.9294433
-1.0305774 -0.49491987 -0.870222 0.09561716 0.77087116 -0.6722667 0.30323187 -1.6678817
-0.23512936 -1.9884046 -0.029921968 0.30525738 0.7219039 1.3467754 -1.3284591 0.89793545
0.72744966 0.5021563 -0.6571914 -0.958517 -1.1238573 0.933283 -0.14922349 0.35530418
00000000: dc54 943e 22d7 95be ebfb 9abe fa83 353f
00000010: 0fc0 4fbe 56a5 a23e 16a3 443f 552e 31bf
00000020: fd17 ddbe c8e3 0fbb 28c4 14bf e32d efbe
00000030: bb22 023f 0393 b23e 9281 243d 53c0 0f3f
00000040: c032 7d3f 36de fc3c 7ef0 033f c6ab e7bf
00000050: bffe 2a3f bb48 013f 9ab7 01be cc08 7cbd
00000060: 1036 103f 88f3 0f40 ded8 c33f 4c0e d5be
00000070: 88c5 643f 4e06 fa3e a412 fe3f 8688 12bd
00000080: 3a9b cebe c920 bdbe 665e 33be be9e fc3e
00000090: 2da3 953d bbe1 acbc 674a ed3e fcd4 20bf
000000a0: 7ed7 3cbe 32b4 da3d a2a8 6cbd 4a26 953e
000000b0: d329 c5be 7554 6e3e 3203 e83e 8762 3b3f
000000c0: 305b d6be f834 fb3f 57e5 bfbe dcc8 35bc
000000d0: 13cc f33e 8b54 04c0 c8c1 8b3f f33b dabd
000000e0: b89c 5f3f a800 62bf d282 90bf 5d64 443f
000000f0: 5d07 64bf f102 2ebf c678 8d3f 52e5 803f
00000100: 17f4 9cbe 1640 84be c84e b6be 0fd3 3cbe
00000110: 5218 96bf 6b55 8d3f c0bc e8bf 76d7 873f
00000120: 8608 a93e 2d5e 123e ce0d c9bf f652 a2be
00000130: a26b e1bc 6c13 46bf 77ae 31bf a693 f6bf
00000140: ca35 553f e2eb 0ebf dfd8 1d3e 1cdc 3dbf
00000150: 3062 973f 63a3 9b3f 4b7c 9fbf c4a9 8f3f
00000160: 539c 1fbe ddbe 603f 996a c93e a8c0 71bf
00000170: 4aa6 523f 07e6 5ebf be90 29bf 8930 443e
00000180: d300 1cbe 3ba3 ebbe ae9f 833e 538a 74be
00000190: b970 8a3e 1213 0c3f b365 5cbf bd4c 52be
000001a0: afe1 f8be 483f 523f e067 9a3e 5c6b 393f
000001b0: b612 9ebf a95d 013f 20fb 8bbf 29c7 3dbf
000001c0: 2ad2 eabe 692f 0b3f 1d44 353d 6f40 8bbe
000001d0: 9093 f63f 0faa 3abd 3920 4fbe f367 09c0
000001e0: e939 e7be b152 4bbf 3305 2e3f 2fa1 55be
000001f0: 39f5 36bf dc68 dc3f f809 9dbf e2f9 83be
00000200: 9991 32bf 23a1 48be 20c1 a33f e1a7 d6bf
00000210: 311e 0a3f c96a 97be d484 8abf 93bd a2bf
00000220: c584 63be 6678 8abf 29c3 313f 2175 7bbe
00000230: 049a 623f cb98 b1bf b8c2 103f ae6b 0dc0
00000240: a6f2 2fbf 1cbc d83e eabb 803d 4cb2 2bbe
00000250: 928b 0bbe 29c3 03c0 15b9 19bf 8de4 89bf
00000260: e7a2 9dbf 153e 723e a7a5 98bf dc98 83bf
00000270: 738c 3ebf 44dd 313f 5440 0d3e 36b3 943f
00000280: ca54 e13e b563 91bf 46f5 3fbf 0b03 d0bf
00000290: 22df 4b3f 340b 5a3f 138f 5dbf 99cb ee3e
000002a0: 8483 96be ff2e c73f 6282 1a3e da46 1bbf
000002b0: 5c3d 5bbf f570 33bf 721f 2b3e 777e ecbe
000002c0: 5090 7ebf dec9 52bf 9bbf 92bf 2009 b63e
000002d0: f7cd f03f b887 dfbf a3df 0440 c701 863f
000002e0: 3d72 20bf 1c66 90bf 4d7d 4ebf 3765 c5be
000002f0: 0a7a 113f ab44 efbe 9f74 46bf 1e55 ae3f
00000300: 28c6 81be 567d 593f b116 643d 79fc 9d3f
00000310: b392 ce3f 4a0c 61bf 1847 7a3f bd48 b33f
00000320: f3af 203f 5a11 83bf 380f 64bf 1469 e2be
00000330: 37a7 55be 967f 923f 56c5 24be 6835 d33f
00000340: ce50 acbf 2fb6 17be 5795 babe 0a49 0c3d
00000350: 8e99 5b3f e9d2 503f f4f8 70be 9fb5 353d
00000360: f868 21bf e2d7 9e3e cb08 9abe df2a 05bf
00000370: a2f3 ad3f 13ec 9e3d 540c 9cbd 84de 5bbe
00000380: de93 083f 728d 723f 4914 5bbf 4fc9 e53f
00000390: 8e42 ab3f 2c58 703d 50cb 4abf ffef 6d3f
000003a0: f6e9 83bf 2366 fdbe dec6 5ebf eed2 c33d
000003b0: d057 453f ac19 2cbf 3541 9b3e 267d d5bf
000003c0: c0c5 70be 0b84 febf ea1e f5bc b24a 9c3e
000003d0: b2ce 383f 2363 ac3f f30a aabf 19df 653f
000003e0: 243a 3a3f 518d 003f b23d 28bf 5f61 75bf
000003f0: 8eda 8fbf a2eb 6e3f 0bce 18be 6eea b53e

embeds.1.weight f4 [8, 4]
0.06900894 -0.18562084 -0.12761624 1.2304701 -1.0437862 0.9661076 1.3138005 -0.8127988
-0.17530486 -0.8246312 -1.3088583 0.8714395 -0.542447 1.1032177 -0.6566574 0.073719755
1.7975255 1.4835048 0.03477455 0.45846248 1.293998 0.7467534 1.190347 -0.021079907
0.89275926 1.05681 0.2982056 0.002974616 1.4176897 1.2652301 -1.2963119 -1.3941944
00000000: 8f54 8d3d 6413 3ebe d5ad 02be 0b80 9d3f
00000010: c99a 85bf d452 773f 9d2a a83f 9513 50bf
00000020: 1e83 33be 081b 53bf ab88 a7bf a916 5f3f
00000030: cedd 0abf 3d36 8d3f b31a 28bf 62fa 963d
00000040: 5115 e63f 7ce3 bd3f c26f 0e3d 98bb ea3e
00000050: baa1 a53f 3b2b 3f3f 4a5d 983f c5af acbc
00000060: df8b 643f 8d45 873f 68ae 983e c6f1 423b
00000070: db76 b53f 0ff3 a13f 8ced a5bf f674 b2bf

bn_cont.weight f4 [3]
1.6476483 0.94308156 1.6046045
00000000: 24e6 d23f cb6d 713f ae63 cd3f

bn_cont.bias f4 [3]
-0.45470542 0.048202373 0.012326176
00000000: 26cf e8be da6f 453d bbf3 493c

bn_cont.running_mean f4 [3]
1.2785778 126.20015 2.0029511
00000000: 70a8 a33f 7a66 fc42 5a30 0040

bn_cont.running_var f4 [3]
3.0949502 1469.1687 4.0135208e-05
00000000: aa13 4640 66a5 b744 da56 2838

fc1.weight f4 [50, 27]
0.082328625 0.29648784 -0.07481337 -0.03674883 0.19235346 0.16898316 -0.104390815 -0.23186527
-0.09508111 -0.0013289023 0.05626894 0.17608812 0.2473202 0.33610755 -0.099540405 0.21773523
-0.14516436 -0.08231134 0.05253163 0.048586052 -0.19625954 0.25550577 -0.07802589 -0.44920215
0.06878181 0.0118298745 0.4203666 0.114892766 0.018963994 -0.23841411 0.12910879 -0.16955926
0.10134567 0.12626424 0.0860444 0.1261451 0.052390896 -0.01961284 0.07666862 -0.1511337
-0.09864511 0.08157828 0.098114274 -0.08711166 -0.26371747 0.02513062 0.059326753 0.017428322
-0.14909042 -0.21689157 -0.2495128 0.086237535 -0.06782724 0.6631883 -0.06120701 0.18097177
0.026912488 0.06771834 0.035370044 0.10925269 0.0021110447 -0.038318988 -0.034829292 0.04824286
-0.014897626 0.18146594 0.15265313 -0.055213176 0.09207347 0.07574986 -0.041100185 0.21834211
0.020532442 0.022147695 -0.121455595 -0.17619216 0.0009837897 -0.17361812 0.3215821 -0.031566378
0.71791124 -0.06735509 0.2655938 -0.00534823 0.07859621 -0.040546995 -0.18928507 -0.018185649
-0.14626375 0.054529496 -0.22816317 -0.12590942 -0.07605029 0.10762039 0.15586361 0.1839363
-0.23240267 0.022914976 -0.17203663 -0.045848466 0.021035159 0.04455077 -0.15871137 -0.11922229
-0.4483824 0.2535916 -0.07311436 -0.47192636 -0.03523191 0.24072443 0.16584037 0.11549682
0.045142308 -0.084039606 0.2634793 -0.09598213 0.2102972 0.19784907 0.123094685 -0.19620334
0.1242263 -0.0043486455 0.26180777 -0.015158423 -0.078160614 -0.034728065 -0.03831931 0.10731245
-0.060659308 -0.4043487 -0.08204281 -0.23589681 -0.008450204 -0.13766615 0.62917584 -0.050328013
0.2117124 -0.020475324 0.0017596242 0.13489321 -0.124547295 0.04146969 -0.13177921 0.109557666
0.056384407 0.08848459 0.15918897 0.07204634 -0.12755972 0.023132227 -0.108215705 -0.118735604
0.104369156 -0.07707179 0.12248358 -0.00022698753 -0.15066673 -0.043647636 -0.24493146 0.20230299
-0.07091035 0.71146446 -0.005198834 0.118624866 -0.08138317 0.031807795 -0.0581284 0.044923045
-0.024100712 -0.030621162 -0.09995808 -0.020616468 -0.02549856 0.115002535 -0.061098136 -0.09782042
0.06760333 0.14634062 -0.1276622 -0.12604511 0.03726963 0.04839235 0.04376147 -0.20350124
-0.04450402 -0.24908747 0.22414078 -0.14121488 0.6518675 0.027737329 0.21327819 -0.022346228
-0.021660302 0.09033694 -0.0353955 -0.1264868 -0.13745418 0.001171704 0.0018884719 0.16285115
0.19843297 0.03613203 -0.03737804 0.123739 -0.110976085 -0.07053886 0.13289146 -0.13088632
0.047566917 -0.048042916 -0.1412011 -0.013747362 -0.16878363 0.24899879 -0.030828193 0.6747204
-0.008396107 0.16894218 0.07298242 0.079807624 -0.010979836 0.15431911 -0.050645195 0.170803
0.03503165 -0.026084214 -0.03443979 0.22019702 0.15488297 -0.15170361 0.04964714 0.1840495
0.04637073 0.17889595 -0.008092895 0.043143373 -0.16137691 0.04636203 0.060124252 -0.019178612
0.4777151 -0.19846255 0.7003143 -0.044849128 0.016614331 -0.10389037 0.05384927 0.0072425893
-0.021826103 -0.09080986 -0.047824077 -0.05034643 0.01798331 0.0074478537 0.13740048 -0.046059687
00000000: e99b a83d 41cd 973e c137 99bd f185 16bd
00000010: 4ef8 443e ec09 2d3e daca d5bd 176e 6dbe
00000020: e3b9 c2bd 902e aeba 437a 663d 7250 343e
00000030: 8241 7d3e 4a16 ac3e d7db cbbd fcf5 5e3e
00000040: f7a5 14be d992 a8bd 682b 573d 2b02 473d
00000050: 43f8 48be a7d1 823e 0acc 9fbd d3fd e5be
00000060: 7add 8c3d 17d2 413c 4a3a d73e e64c eb3d
00000070: 615a 9b3c d422 74be 1835 043e f1a0 2dbe
00000080: 528e cf3d 6a4b 013e 0c38 b03d 2e2c 013e
00000090: d697 563d 1bab a0bc 7004 9d3d cbc2 1abe
000000a0: 7306 cabd 8312 a73d 23f0 c83d 9967 b2bd
000000b0: fa05 87be bbde cd3c 9c00 733d d7c5 8e3c
000000c0: 29ab 18be d318 5ebe 4980 7fbe 4e9d b03d
000000d0: 02e9 8abd b5c6 293f 34b4 7abd aa50 393e
000000e0: 9477 dc3c eaaf 8a3d 2ee0 103d e0bf df3d
000000f0: 7459 0a3b 5ff4 1cbd 29a9 0ebd 4e9a 453d
00000100: 2c15 74bc 35d2 393e 1a51 1c3e 3627 62bd
00000110: 0491 bc3d be22 9b3d ab58 28bd 1395 5f3e
00000120: a733 a83c 156f b53c b6bd f8bd b86b 34be
00000130: 81f2 803a f3c8 31be 69a6 a43e bf4b 01bd
00000140: 08c9 373f 77f1 89bd e9fb 873e 3440 afbb
00000150: 0df7 a03d 9b14 26bd f2d3 41be 12fa 94bc
00000160: 2ac6 15be 525a 5f3d 9ba3 69be 66ee 00be
00000170: 41c0 9bbd 1468 dc3d b69a 1f3e cc59 3c3e
00000180: f7fa 6dbe 30b8 bb3c 5f2a 30be 9acb 3bbd
00000190: ed51 ac3c de7a 363d 3c85 22be d12a f4bd
000001a0: 6192 e5be c2d6 813e fbbc 95bd 55a0 f1be
000001b0: 564f 10bd 7780 763e 0fd2 293e 9989 ec3d
000001c0: 24e7 383d f51c acbd c2e6 863e 4792 c4bd
000001d0: 2658 573e f298 4a3e 1119 fc3d 87e9 48be
000001e0: 5c6a fe3d 157f 8ebb ab0b 863e 095b 78bc
000001f0: ac12 a0bd 043f 0ebd b5f4 1cbd a1c6 db3d
00000200: e575 78bd cb06 cfbe 1006 a8bd ef8e 71be
00000210: b972 0abc 5bf8 0cbe ab11 213f bf24 4ebd
00000220: 23cb 583e debb a7bc 31a3 e63a 7221 0a3e
00000230: a712 ffbd 1fdc 293d 21f1 06be c55f e03d
00000240: 56f3 663d 6937 b53d 6f02 233e 088d 933d
00000250: 049f 02be cc7f bd3c 32a0 ddbd a72b f3bd
00000260: 7fbf d53d d1d7 9dbd acd8 fa3d 8003 6eb9
00000270: 6148 1abe ddc7 32bd 50cf 7abe 8428 4f3e
00000280: 7239 91bd 8922 363f fb5a aabb 98f1 f23d
00000290: 38ac a6bd e448 023d 0c18 6ebd 3a01 383d
000002a0: db6e c5bc 3bd9 fabc d2b6 ccbd dee3 a8bc
000002b0: 5be2 d0bc 7386 eb3d 0a42 7abd 1356 c8bd
000002c0: 9d73 8a3d 51da 153e e1b9 02be f811 01be
000002d0: 0aa8 183d 0f37 463d 3a3f 333d a162 50be
000002e0: d949 36bd c910 7fbe 2985 653e a29a 10be
000002f0: cae0 263f 6539 e33c 9965 5a3e 700f b7bc
00000300: f270 b1bc 9302 b93d dffa 10bd c185 01be
00000310: cac0 0cbe dd93 993a 9a86 f73a 74c2 263e
00000320: 0332 4b3e 2eff 133d b719 19bd df6a fd3d
00000330: 6e47 e3bd ae76 90bd b314 083e 1007 06be
00000340: 87d5 423d a6c8 44bd 0597 10be 9e3c 61bc
00000350: 9ed5 2cbe 8af9 7e3e 688b fcbc 7aba 2c3f
00000360: d38f 09bc 2eff 2c3e cf77 953d 2e72 a33d
00000370: c5e4 33bc d405 1e3e 5671 4fbd fbe6 2e3e
00000380: 597d 0f3d 90ae d5bc bd10 0dbd 547b 613e
00000390: a499 1e3e 3158 1bbe cd5a 4b3d 7977 3c3e
000003a0: 3cef 3d3d 8030 373e 1098 04bc 1bb7 303d
000003b0: fd3f 25be 1de6 3d3d d944 763d 771c 9dbc
000003c0: 1397 f43e c439 4bbe cc47 333f b8b3 37bd
000003d0: c71a 883c 79c4 d4bd 0d91 5c3d 3e53 ed3b
000003e0: a8cc b2bc 85fa b9bd 2ee3 43bd 0f38 4ebd
000003f0: bc51 933c 200d f43b b6b2 0c3e 15a9 3cbd

fc1.bias f4 [50]
-0.46332306 0.8652635 -0.22150145 -0.53563887 -0.2847541 -0.60027534 0.24092008 -0.3527995
0.19470453 -0.31528047 -0.17558002 -0.29499206 0.017583733 0.2485433 -0.3158362 -0.03491869
0.95674497 -0.5525534 0.065721795 0.035632387 0.30228412 0.94445944 0.5817321 -0.21601179
-0.70747215 -0.3040238 -0.06295097 0.911079 -0.6108699 1.0087416 1.0758817 -0.20716016
0.36865944 -0.20875569 0.5471242 -0.16772527 -0.62953424 -0.65998495 0.3205439 -0.4854273
0.4576263 0.7497738 -0.44652483 -0.11377017 -0.5793623 1.16431 0.6986205 -0.5622623
-0.63247186 -0.21314818
00000000: ae38 edbe e981 5d3f 47d1 62be a11f 09bf
00000010: 4acb 91be a5ab 19bf c1b3 763e 23a2 b4be
00000020: a060 473e 716c a1be 40cb 33be 3309 97be
00000030: c30b 903c 2382 7e3e 48b5 a1be e606 0fbd
00000040: 3ded 743f 2474 0dbf 2699 863d 44f3 113d
00000050: fcc4 9a3e 18c8 713f 65ec 143f 3232 5dbe
00000060: e51c 35bf 02a9 9bbe 70ec 80bd 793c 693f
00000070: f861 1cbf 721e 813f 7eb6 893f cb21 54be
00000080: eec0 bc3e 0dc4 55be 5510 0c3f 2cc0 2bbe
00000090: 2829 21bf c6f4 28bf 541e a43e ed89 f8be
000000a0: ff4d ea3e 2df1 3f3f e79e e4be 5600 e9bd
000000b0: 1651 14bf 1c08 953f cbd8 323f 6cf0 0fbf
000000c0: ade9 21bf 8443 5abe

bn1.weight f4 [50]
0.7820376 0.8782383 0.8524718 1.2896624 0.8107823 0.7828859 0.7543586 0.84762096
0.77748275 0.84810084 0.76575786 0.6984066 0.92141634 0.87539554 0.9765177 0.9513506
0.80887675 0.87589806 0.9175836 0.77444494 0.92599744 0.7840662 0.8714062 0.8498442
0.7802591 1.0152462 1.0092459 0.8088392 1.1113725 0.8622587 0.7808291 0.88569826
0.73989934 1.0372373 0.68151027 0.8083067 1.4327437 1.3340218 0.78638595 1.4555742
0.6036352 0.7924201 1.1176407 0.924694 1.0370499 0.8940724 0.8330575 0.7932911
0.74958134 0.69406974
00000000: 9e33 483f 3ad4 603f 983b 5a3f a813 a53f
00000010: 6e8f 4f3f 366b 483f a51d 413f b0fd 583f
00000020: 1c09 473f 231d 593f b508 443f c6ca 323f
00000030: f1e1 6b3f ec19 603f 10fd 793f b78b 733f
00000040: 8c12 4f3f db3a 603f c2e6 6a3f 0642 463f
00000050: 2b0e 6d3f 90b8 483f 7a14 5f3f 648f 593f
00000060: 0fbf 473f 96f3 813f f82e 813f 1610 4f3f
00000070: 7441 8e3f fcbc 5c3f 6ae4 473f 1fbd 623f
00000080: 0b6a 3d3f 31c4 843f 7577 2e3f 30ed 4e3f
00000090: 2564 b73f 3ac1 aa3f 9750 493f 4150 ba3f
000000a0: d687 1a3f 0bdc 4a3f da0e 8f3f bfb8 6c3f
000000b0: 0dbe 843f eee1 643f 4243 553f 2015 4b3f
000000c0: 90e4 3f3f 8eae 313f

bn1.bias f4 [50]
-0.12905365 0.193488 -0.72814643 0.07752774 0.008260972 -0.75111634 0.002235494 -0.6715708
-0.60737324 0.6784067 0.26092172 -0.79611933 -0.38979977 -0.5576361 0.4382122 0.88906777
0.97885376 0.09592223 0.40055707 0.050063536 1.0105231 0.77291524 -0.47091505 -0.62599105
-0.6431473 0.3200849 0.31301227 0.042762104 0.05594777 0.13020873 -0.3858979 0.78926134
-0.0016432751 0.11855776 -0.27441087 0.6837726 0.039205924 0.028822303 0.22142029 0.07403485
0.008575811 0.1309655 0.03803613 -0.22612128 0.115356766 0.9472282 -0.37649405 0.060187668
-0.057612486 -0.83699304
00000000: a426 04be b821 463e ce67 3abf ddc6 9e3d
00000010: 0759 073c 2949 40bf 5e81 123b 10ec 2bbf
00000020: d07c 1bbf 10ac 2d3f 8897 853e 7ace 4bbf
00000030: d693 c7be 3dc1 0ebf 595d e03e f299 633f
00000040: 2996 7a3f e072 c43d d115 cd3e 6c0f 4d3d
00000050: d258 813f c6dd 453f c71b f1be f340 20bf
00000060: 4da5 24bf 2be2 a33e 2543 a03e 5127 2f3d
00000070: 7d29 653d 7055 053e 6994 c5be 080d 4a3f
00000080: 2a63 d7ba 69ce f23d 957f 8cbe b90b 2f3f
00000090: 6496 203d c01c ec3c 00bc 623e 959f 973d
000000a0: 8f81 0c3c d21b 063e c6cb 1b3d 568c 67be
000000b0: 2b40 ec3d 8c7d 723f d4c3 c0be 5887 763d
000000c0: 12fb 6bbd 2d45 56bf

bn1.running_mean f4 [50]
0.16033214 1.1128646 0.21498449 0.038605336 0.17032604 0.09287181 0.42238232 0.120478876
0.5416468 0.63300514 0.38786036 0.20760207 0.3542163 0.45483118 0.29547048 0.69457597
1.5731978 0.05318391 0.39049357 0.66980183 1.0863767 1.8954486 0.8377327 0.2298299
0.07480375 0.2777623 0.22325027 0.9661212 0.020066516 1.1671758 1.322361 0.54229504
1.0483536 0.04690603 0.7787546 0.5111594 0.030630447 0.012326146 0.31093532 0.04196072
0.44325107 1.0673152 0.03480606 0.09762494 0.04977042 1.7997712 1.0759346 0.05481688
0.090819836 0.2838085
00000000: 1c2e 243e 5972 8e3f e524 5c3e a120 1e3d
00000010: f369 2e3e 9333 be3d 7f42 d83e a1bd f63d
00000020: 5da9 0a3f a00c 223f a295 c63e a395 543e
00000030: d75b b53e a2df e83e e847 973e bbcf 313f
00000040: 8c5e c93f 5fd7 593d c6ee c73e 2278 2b3f
00000050: 640e 8b3f 0f9e f23f a675 563f 8858 6b3e
00000060: b532 993d dc36 8e3e b89b 643e b853 773f
00000070: 8962 a43c 0466 953f 2043 a93f d9d3 0a3f
00000080: 7330 863f 8a20 403d 765c 473f 58db 023f
00000090: b4ec fa3c 9af3 493c ea32 9f3e 01df 2b3d
000000a0: cef1 e23e c99d 883f cd90 0e3d 96ef c73d
000000b0: 11dc 4b3d e75e e63f 3ab8 893f aa87 603d
000000c0: c0ff b93d 594f 913e

bn1.running_var f4 [50]
0.11968379 0.7533217 0.34663925 0.1804917 0.14326146 0.13567086 0.4403346 0.1871724
0.9949129 0.36640647 0.4732498 0.25753942 0.49416202 0.63337874 0.20421366 0.34889042
0.3894882 0.066031896 0.25829569 0.7338972 0.4590089 0.5784949 0.64059126 0.47957093
0.117069274 0.3670426 0.3042421 0.6090168 0.045885324 0.855395 1.1685232 0.28743157
0.983198 0.09238972 0.6414099 0.24688032 0.2099485 0.17979108 0.24954103 0.19209805
0.45622483 1.035492 0.12064468 0.36772248 0.114583895 0.37196317 0.84333104 0.08354161
0.07402668 0.3938001
00000000: c61c f53d b1d9 403f b37a b13e d1d2 383e
00000010: 22b3 123e 4ded 0a3e 8973 e13e 1faa 3f3e
00000020: 9db2 7e3f a199 bb3e cc4d f23e 35dc 833e
00000030: ce02 fd3e 1c25 223f 631d 513e c4a1 b23e
00000040: ff6a c73e bb3b 873d 553f 843e b0e0 3b3f
00000050: 3703 eb3e 3e18 143f cafd 233f 528a f53e
00000060: 04c2 ef3d 02ed bb3e 9fc5 9b3e 86e8 1b3f
00000070: 40f2 3b3d 2bfb 5a3f 2b92 953f 3b2a 933e
00000080: ddb2 7b3f d236 bd3d 7033 243f 32ce 7c3e
00000090: bdfc 563e 271b 383e af87 7f3e 5ab5 443e
000000a0: 4d96 e93e 008b 843f 8f14 f73d 1f46 bc3e
000000b0: f6aa ea3d f571 be3e 8be4 573f dd17 ab3d
000000c0: 4d9b 973d 2ba0 c93e

fc2.weight f4 [50, 50]
0.20339796 0.15055302 0.24839014 -0.25769877 0.28370187 -0.08894425 -0.029341653 -0.054991975
0.2535436 -0.19145854 0.19365108 -0.057598315 0.41943035 0.47737563 -0.6093875 -0.035595305
-0.012088383 -0.13455856 -0.21007915 0.03792526 -0.18786147 -0.3022856 0.33140022 0.10973676
-0.056079566 -0.43823123 -0.411635 0.09437179 -0.22103518 -0.057984967 0.24002266 -0.20545654
0.08235341 -0.14507627 0.10139457 -0.1995883 -0.2541462 -0.41057095 -0.021231227 -0.2138657
0.1515984 0.055459004 -0.043816935 -0.335849 -0.098975845 -0.15581208 0.26495135 -0.023478726
0.07005008 0.13340585 -0.22205482 0.08188902 -0.13767909 -0.48346865 -0.0728214 -0.06384364
0.044910446 -0.10445255 -0.17643106 0.076255746 0.1983838 -0.11883139 -0.22144069 -0.3639719
0.14657247 0.15940368 -0.017404301 0.21950392 0.07957288 0.11495769 0.12853277 0.023211911
-0.1753601 -0.27876994 -0.06947642 0.04252733 0.14220229 -0.12228332 -0.51713926 0.003163073
-0.36276343 0.08581442 0.008184077 -0.13235466 -0.15550879 0.24122457 -0.2875172 -0.32289705
0.008077953 -0.36059242 -0.06360479 -0.12535258 -0.1598725 -0.20408952 -0.19785406 0.02796714
-0.11595022 -0.2656223 0.0076380037 -0.2022096 0.21738979 0.25309312 0.35093805 -0.24153993
0.18092328 0.21146347 -0.09626826 0.23068576 -0.04859919 -0.22164485 -0.054671403 0.16696703
-0.06767091 0.18825695 -0.2949199 -0.15443687 -0.07528764 -0.1818298 -0.05091287 -0.033780217
-0.09314861 -0.13632679 0.06159129 0.115641125 0.08717879 -0.27238712 -0.45740238 0.22390322
-0.27683717 0.2476897 0.16465464 -0.3479381 -0.060888007 -0.3168246 0.2595443 -0.337689
-0.16824126 -0.071902655 0.05830432 -0.30795768 -0.00501451 0.08351352 -0.16504364 -0.17120624
0.10144046 -0.1629425 -0.06458863 -0.14334078 0.37144125 0.3966592 0.032435305 0.017288744
0.044304777 0.1677976 -0.3116647 0.07388042 0.066405155 0.11366174 0.30262843 0.2858972
-0.27453187 0.20522894 0.101031795 0.17754036 0.148192 0.24675766 0.2615438 -0.61770874
0.035642285 0.08834216 0.23859333 0.09148015 0.0009105711 0.38081005 -0.056203887 0.22202088
0.056755565 -0.07824344 0.22969075 0.103054985 0.17525172 0.31651294 0.37463197 0.47967052
0.008421403 0.19581884 0.4695728 0.44746748 -0.3608068 0.1808453 0.21059486 0.43868598
0.24631731 0.20334212 -0.3263249 0.14975107 0.020243132 0.048584998 -0.22522578 0.30489936
-0.07368776 -0.18717736 0.023782268 -0.12562428 -0.42864415 0.014463003 -0.25446808 -0.051719945
-0.24624006 0.24078059 -0.09256473 -0.04791146 -0.2936658 -0.09614439 0.027117655 0.035624266
0.21746735 -0.032549895 0.1659201 -0.23761748 0.06433208 0.08398969 -0.12912324 0.019976191
0.008452647 0.20739503 0.0991292 -0.24470481 -0.12693699 -0.10444912 -0.24984276 0.19534773
-0.14119543 0.076382175 -0.20407642 0.13409907 -0.5091739 -0.16247924 -0.18097045 -0.17407483
-0.07214794 -0.28978065 0.054185987 -0.32631335 -0.031193806 0.23693334 -0.23514286 -0.20913796
-0.29452774 -0.00040197483 0.057123434 0.12672307 0.18624774 -0.2414777 -0.011482111 0.0028285705
00000000: 8e47 503e 922a 1a3e fc59 7e3e 18f1 83be
00000010: 5f41 913e 6728 b6bd e85d f0bc 443f 61bd
00000020: 77d0 813e b50d 44be 784c 463e 36ec 6bbd
00000030: 93bf d63e 946a f43e d200 1cbf 62cc 11bd
00000040: 5a0e 46bc b8c9 09be fd1e 57be 8457 1b3d
00000050: c25e 40be 2ec5 9abe 4aad a93e abbd e03d
00000060: b0b3 65bd d85f e0be d3c1 d2be ff45 c13d
00000070: 0c57 62be a581 6dbd 80c8 753e 3363 52be
00000080: e8a8 a83d e08e 14be f5a7 cf3d e060 4cbe
00000090: 731f 82be 5b36 d2be 1ced adbc 9cff 5abe
000000a0: 9c3c 1b3e fb28 633d 6379 33bd 66f4 abbe
000000b0: d9b3 cabd 348d 1fbe b4a7 873e 7556 c0bc
000000c0: 6b76 8f3d 8b9b 083e 5762 63be 6eb5 a73d
000000d0: bffb 0cbe 3489 f7be 6323 95bd 74c0 82bd
000000e0: 04f4 373d 38eb d5bd 58aa 34be f92b 9c3d
000000f0: 1f25 4b3e df5d f3bd 59c1 62be 865a babe
00000100: 1817 163e b83a 233e 7793 8ebc a3c5 603e
00000110: 1bf7 a23d f06e eb3d 189e 033e e826 be3c
00000120: 9991 33be efba 8ebe a749 8ebd 2331 2e3d
00000130: 7a9d 113e ad6f fabd 3d63 04bf 8f4b 4f3b
00000140: 21bc b9be 78bf af3d 8216 063c fb87 07be
00000150: b23d 1fbe 9303 773e 7435 93be c352 a5be
00000160: 6459 043c 929f b8be 3a43 82bd 6d5c 00be
00000170: 9eb5 23be d8fc 50be 419a 4abe 581b e53c
00000180: 4f77 edbd a5ff 87be 3848 fa3b 0910 4fbe
00000190: 6e9b 5e3e 6c95 813e 27ae b33e 3e56 77be
000001a0: f443 393e e189 583e 4b28 c5bd e338 6c3e
000001b0: f20f 47bd def6 62be 1fef 5fbd 68f9 2a3e
000001c0: 0c97 8abd 6ec6 403e beff 96be b324 1ebe
000001d0: 6830 9abd 9731 3abe 038a 50bd 205d 0abd
000001e0: b3c4 bebd 4099 0bbe 2647 7c3d 41d5 ec3d
000001f0: cb8a b23d 5376 8bbe a530 eabe e346 653e
00000200: 9abd 8dbe 5ea2 7d3e 3a9b 283e f124 b2be
00000210: b465 79bd d536 a2be fee2 843e 93e5 acbe
00000220: 7047 2cbe b341 93bd 83d0 6e3d a1ac 9dbe
00000230: c250 a4bb 2309 ab3d 3301 29be b050 2fbe
00000240: 04c0 cf3d 66da 26be 0b47 84bd edc7 12be
00000250: 8c2d be3e ea16 cb3e e2da 043d 20a1 8d3c
00000260: ed78 353d 22d3 2b3e 8492 9fbe 9e4e 973d
00000270: 6dff 873d 7dc7 e83d 1df2 9a3e 1e61 923e
00000280: 718f 8cbe 8927 523e c2e9 ce3d 24cd 353e
00000290: a5bf 173e 0aae 7c3e 12e9 853e 2922 1ebf
000002a0: a5fd 113d bcec b43d cf51 743e f259 bb3d
000002b0: 64b3 6e3a 89f9 c23e 0c36 66bd 7159 633e
000002c0: 8678 683d 193e a0bd 0d34 6b3e 7e0e d33d
000002d0: 3075 333e fc0d a23e c3cf bf3e 6097 f53e
000002e0: edf9 093c bc84 483e d96b f03e 751a e53e
000002f0: abbb b8be 832f 393e 2ea6 573e 739b e03e
00000300: 9b3a 7c3e eb38 503e 0f14 a7be 5858 193e
00000310: edd4 a53c 1001 473d 96a1 66be c51b 9c3e
00000320: 9ce9 96bd 6cab 3fbe 08d3 c23c a7a3 00be
00000330: 3f77 dbbe 3bf6 6c3c a449 82be 4bd8 53bd
00000340: 5b26 7cbe 308f 763e 9492 bdbd cf3e 44bd
00000350: 5d5b 96be 5ae7 c4bd d825 de3c c0ea 113d
00000360: c3af 5e3e 0a53 05bd f5e6 293e ff51 73be
00000370: 8ac0 833d c902 ac3d e238 04be 1ca5 a33c
00000380: f97c 0a3c 5d5f 543e 4004 cb3d e693 7abe
00000390: c5fb 01be 6ce9 d5bd c8d6 7fbe 3c09 483e
000003a0: 8995 10be 426e 9c3d 69f9 50be 4451 093e
000003b0: 3959 02bf f560 26be 5150 39be ac40 32be
000003c0: 4dc2 93bd 215e 94be 20f2 5d3d 8b12 a7be
000003d0: 278a ffbc a79e 723e 4ac9 70be 4328 56be
000003e0: 57cc 96be 26c0 d2b9 43fa 693d b1c3 013e
000003f0: bab7 3e3e ee45 77be 771f 3cbc 8a5f 393b

fc2.bias f4 [50]
0.41147843 1.299879 -0.17466994 -0.5815236 0.83078974 0.16469032 -0.44217682 -0.36088592
-0.58019644 -0.92696625 0.3391913 0.183351 0.6125731 -0.24946032 -1.1033647 0.8843876
-0.9089533 -0.45108357 0.14390482 0.822664 0.94838446 0.8945273 0.35278276 0.104653314
1.2175895 -1.2750669 0.6471627 -0.59919316 -0.16815087 -0.023726838 -0.4267686 0.22901593
-0.28239715 -0.15404496 -0.28495085 0.8651606 0.45158336 0.6312451 -0.9984486 -0.53853816
0.16955656 0.27276614 0.6105162 -1.1832169 0.34762543 -0.23968944 0.46277606 0.9140606
0.80382425 -0.75720173
00000000: 4dad d23e 6f62 a63f addc 32be bbde 14bf
00000010: a3ae 543f 94a4 283e 0065 e2be 0ac6 b8be
00000020: c187 14bf a94d 6dbf 7baa ad3e 5dc0 3b3e
00000030: 97d1 1c3f 8772 7fbe 0e3b 8dbf 3a67 623f
00000040: 2ab1 68bf 6df4 e6be c95b 133e 1c9a 523f
00000050: 53c9 723f beff 643f f19f b43e 7a54 d63d
00000060: f9d9 9b3f 6435 a3bf 74ac 253f b964 19bf
00000070: be2f 2cbe c95e c2bc 6a81 dabe 2783 6a3e
00000080: 5c96 90be f6bd 1dbe 14e5 91be 2a7b 5d3f
00000090: ef35 e73e 4799 213f 549a 7fbf a3dd 09bf
000000a0: 3ca0 2d3e 01a8 8b3e ca4a 1c3f a773 97bf
000000b0: f6fb b13e 2671 75be fcf0 ec3e e0ff 693f
000000c0: 6dc7 4d3f f9d7 41bf

bn2.weight f4 [50]
0.699662 0.44531998 0.7016411 0.6720181 0.6898694 0.6462578 0.7035946 0.88804746
0.669459 0.83765316 0.6400421 0.7758714 0.6680739 0.7706662 0.9686815 0.6814484
0.90312225 0.61141807 0.65747774 0.71987236 0.5533678 0.63672924 0.76862925 0.6724801
0.5610058 0.9477613 0.6996837 0.7892761 0.573873 0.58273387 0.54843014 0.7187992
0.65726 0.6729835 0.78243756 0.6754395 0.6118996 0.50541735 0.90960085 0.62618405
0.72192484 0.71240604 0.55029315 0.87635195 0.549327 0.7692689 0.63362074 0.6852755
0.5229882 0.3540101
00000000: 0d1d 333f fb00 e43e c09e 333f 6109 2c3f
00000010: 489b 303f 2771 253f c71e 343f 1457 633f
00000020: aa61 2b3f 7070 563f cdd9 233f 829f 463f
00000030: e406 2b3f 614a 453f 83fb 773f 6773 2e3f
00000040: 0533 673f e585 1c3f 7650 283f 8e49 383f
00000050: 83a9 0d3f b000 233f e3c4 443f a827 2c3f
00000060: 139e 0f3f 7ca0 723f 791e 333f 000e 4a3f
00000070: 57e9 123f 0c2e 153f eb65 0c3f 3903 383f
00000080: 3142 283f a648 2c3f d44d 483f 9ae9 2c3f
00000090: 74a5 1c3f 0863 013f 9adb 683f 994d 203f
000000a0: 11d0 383f 3e60 363f 03e0 0c3f 9a58 603f
000000b0: b2a0 0c3f ceee 443f f834 223f 376e 2f3f
000000c0: 8ee2 053f d040 b53e

bn2.bias f4 [50]
0.25307485 0.076210804 0.22404599 -0.26003858 0.37668267 0.21781337 0.116154306 0.13837552
0.07447771 -0.03868629 0.32952538 0.22378866 0.42597017 0.12285496 -0.10860926 0.24766177
-0.20921011 0.11471972 0.237064 0.27367342 0.22151501 0.45641345 0.24734965 0.4027872
0.22919953 -0.1729386 0.43671754 0.084808655 0.14556603 0.13246295 0.27887344 0.23146282
0.06514152 0.12462738 0.14297292 0.38380432 0.21659224 0.15278833 -0.12883681 0.0906877
0.39899772 0.22661786 0.22823873 -0.11665696 0.22120766 0.13538425 0.48377833 0.4493531
-0.0026055158 -0.009270051
00000000: 0793 813e 6914 9c3d 506c 653e c723 85be
00000010: 8ddc c03e 780a 5f3e 4fe2 ed3d 50b2 0d3e
00000020: c587 983d 8475 1ebd 8db7 a83e db28 653e
00000030: c318 da3e 629b fb3d 886e debd 0c9b 7d3e
00000040: 2d3b 56be 2cf2 ea3d e8c0 723e ec1e 8c3e
00000050: d5d4 623e 06af e93e 3a49 7d3e 203a ce3e
00000060: 48b3 6a3e d116 31be 7199 df3e 29b0 ad3d
00000070: 430f 153e 5ea4 073e 80c8 8e3e 9704 6d3e
00000080: eb68 853d a43c ff3d 7e67 123e 0082 c43e
00000090: 5bca 5d3e 8b74 1c3e cced 03be 79ba b93d
000000a0: 6e49 cc3e 830e 683e 6ab7 693e d8e9 eebd
000000b0: 4384 623e 2ba2 0a3e cbb1 f73e 9c11 e63e
000000c0: 4dc1 2abb 69e1 17bc

bn2.running_mean f4 [50]
0.70018244 3.6943333 0.43455324 0.54946864 3.1103005 0.38565063 0.16065063 0.19723797
0.111477986 0.15536422 1.0265685 0.55230665 1.5654923 0.21136102 0.052288543 0.76113653
0.08477293 0.10083899 0.46766764 0.6155614 4.1179204 3.3863025 0.52466816 0.80458015
3.9131827 0.034965023 2.9214406 0.07179404 0.2642388 0.15679435 0.23234622 0.37344924
0.20691246 0.36563388 0.5208979 2.7770286 0.527117 4.454091 0.08636018 0.14824864
0.8876937 0.31563744 0.81872135 0.055733223 1.4332075 0.30338672 2.8207846 2.4928486
3.5025234 0.067711726
00000000: 283f 333f f56f 6c40 c37d de3e faa9 0c3f
00000010: 2a0f 4740 0074 c53e 9981 243e c0f8 493e
00000020: 924e e43d cc17 1f3e 9966 833f f863 0d3f
00000030: 0d62 c83f 066f 583e 832c 563d d8d9 423f
00000040: 6e9d ad3d ac84 ce3d 2272 ef3e 6f95 1d3f
00000050: 01c6 8340 2eb9 5840 a750 063f f7f8 4d3f
00000060: 9671 7a40 7c37 0f3d e2f8 3a40 c108 933d
00000070: 4f4a 873e b38e 203e 2bec 6d3e bd34 bf3e
00000080: dce0 533e 5d34 bb3e 9159 053f d6ba 3140
00000090: 24f1 063f ea87 8e40 9bdd b03d 7ece 173e
000000a0: e53f 633f 3b9b a13e b997 513f 8548 643d
000000b0: 5873 b73f 8155 9b3e bc87 3440 d58a 1f40
000000c0: 5829 6040 72ac 8a3d

bn2.running_var f4 [50]
2.4930472 4.2713804 1.657405 15.245827 6.018138 1.120783 0.38651165 1.5327287
0.25316244 10.241693 1.4471298 3.0488358 2.5624719 0.6661186 3.6643207 2.168804
9.089785 0.18180168 1.5421973 1.7342708 7.2748384 6.519682 1.884561 1.2134798
6.353485 1.9080527 6.19475 0.12485941 0.639481 0.32666725 0.568429 1.1595367
0.51837385 2.7776253 7.1300445 4.5802565 1.4141264 11.282006 9.092497 0.3176931
1.251371 0.76694024 2.4359465 3.7495687 2.446122 2.3954675 6.2943516 4.544001
2.48667 0.18645467
00000000: 168e 1f40 26af 8840 d925 d43f e8ee 7341
00000010: 9694 c040 d175 8f3f dbe4 c53e 7430 c43f
00000020: 829e 813e f9dd 2341 8d3b b93f 2020 4340
00000030: 8aff 2340 c086 2a3f 3b84 6a40 afcd 0a40
00000040: c26f 1141 382a 3a3e b966 c53f 96fc dd3f
00000050: 7acb e840 3ca1 d040 4b39 f13f 4e53 9b3f
00000060: c04f cb40 123b f43f 643b c640 4ab6 ff3d
00000070: 07b5 233f ee40 a73e 9084 113f b36b 943f
00000080: 26b4 043f 9dc4 3140 5329 e440 7691 9240
00000090: 1802 b53f 1983 3441 de7a 1141 aca8 a23e
000000a0: ed2c a03f 3256 443f 8ce6 1b40 eff8 6f40
000000b0: 438d 1c40 574f 1940 546b c940 7568 9140
000000c0: 9a25 1f40 f9ed 3e3e

fc3.weight f4 [30, 50]
0.050700065 -0.14938022 0.009589127 -0.15553863 -0.054678384 0.087251425 -0.0031254808 0.06642631
0.092524014 -0.032500386 -0.26731944 0.09381084 -0.1563834 0.09180147 -0.20651668 -0.12851082
-0.1252062 0.078298695 0.08242648 0.07842814 -0.14036684 -0.09179482 0.14440618 -0.3235238
-0.09503284 -0.22230944 -0.060862035 0.12641175 -0.012337845 0.115480095 0.05428414 0.15292919
-0.09835472 0.03418242 0.042805403 -0.046370555 -0.120293364 -0.16658473 -0.17344175 0.08320525
-0.24795291 0.065954566 -0.04630869 -0.17140788 -0.28503817 0.21834055 -0.07352145 -0.11734213
0.0019416142 0.11991209 0.11987913 -0.13942212 0.097432464 -0.16357541 -0.46189463 0.04768405
0.11992633 0.124261566 0.06686699 -0.24156724 -0.22202462 0.13527405 -0.49427643 0.049174592
-0.25418967 0.04153693 -0.29831058 0.17456287 0.00875948 0.16741918 -0.2825414 -0.4006504
0.1165349 -0.21080941 -0.29126275 -0.39420444 -0.5608317 0.085713886 -0.01020309 0.15696068
0.06425599 0.0716385 0.09968012 0.16722849 0.16434619 -0.34391615 0.03589341 -0.13721715
-0.1598807 0.12814963 -0.14516068 -0.013381628 0.07122156 -0.2708355 -0.049097296 0.021584298
-0.49915174 -0.55142045 -0.25652236 0.17442745 0.019959765 -0.17218728 0.10661025 -0.2780776
-0.3762425 0.14432584 -0.015175853 0.08950531 -0.052046362 -0.27982566 -0.22152777 0.0008571306
-0.55311894 0.021380788 -0.27695668 0.0022617772 -0.24005146 -0.008995365 0.098615974 0.17306854
-0.23964837 -0.44404238 0.10279919 -0.20754428 -0.30875286 -0.29551908 -0.4466552 0.0039693336
0.13293658 0.06259933 0.05681528 0.068391465 0.08469514 0.01770394 -0.016782926 -0.3727665
0.033506285 -0.16494061 -0.24488004 0.028124303 -0.15311164 -0.11124747 0.1470835 -0.28560376
-0.19902849 0.00037999256 -0.48365405 -0.44712874 -0.25974023 0.036635164 0.025612615 0.09900869
-0.18861653 -0.035559434 0.005448796 -0.25025308 -0.039537508 -0.06322257 0.09860525 -0.047565486
0.024365302 -0.32996953 0.028437538 -0.09103859 -0.09473177 -0.0585955 -0.1100736 -0.04469518
-0.11356979 -0.04019322 0.018186513 -0.005805784 -0.12633479 0.01452965 0.0038934718 -0.099193074
-0.008553279 0.08727593 -0.16168517 -0.21999992 0.013560312 -0.2962252 -0.06173747 -0.1398858
-0.09819757 -0.022994252 -0.09569225 0.015679644 -0.13414821 0.04064989 0.039566115 -0.20801672
-0.105118036 -0.2364956 0.041576203 -0.08026214 -0.0074463487 0.0022841676 -0.07435044 -0.025031859
0.038357805 0.049454093 -0.1439391 0.0030635945 -0.018546462 -0.15600617 -0.04941423 -0.21062572
0.08718241 -0.087138675 0.014092854 -0.22349894 0.014141064 -0.1522191 -0.11524483 -0.036996122
-0.13670865 -0.21821897 -0.15056214 -0.017952533 0.050959732 0.01033399 0.0024744312 0.02742022
0.02535641 -0.051106732 0.008401357 0.065403 -0.111452326 -0.13143511 -0.05727383 -0.25835338
-0.13109963 -0.19070846 -0.30892414 -0.0021749933 -0.087060556 -0.005686189 0.0009801346 -0.11518184
0.033187557 -0.16069603 -0.032282904 0.008338827 0.039673444 -0.06423078 0.016052434 0.012767148
-0.06578904 -0.10264321 -0.5163589 0.015755143 -0.34408662 -0.16314049 -0.017914228 -0.26162645
00000000: dfaa 4f3d 21f7 18be b71b 1d3c 8545 1fbe
00000010: 71f6 5fbd e0b0 b23d ded4 4cbb 840a 883d
00000020: 3b7d bd3d 201f 05bd 18de 88be e61f c03d
00000030: f822 20be 6902 bc3d 1c79 53be 5798 03be
00000040: 0e36 00be 115b a03d 37cf a83d ef9e a03d
00000050: 53bc 0fbe ecfe bbbd 37df 133e e9a4 a5be
00000060: 94a0 c2bd 16a5 63be 784a 79bd 1572 013e
00000070: ac24 4abc d480 ec3d 0c59 5e3d 7899 1c3e
00000080: 336e c9bd dd02 0c3d b854 2f3d 0def 3dbd
00000090: 5e5c f6bd 3095 2abe b79a 31be 8467 aa3d
000000a0: 5ee7 7dbe 3013 873d 2eae 3dbd 8c85 2fbe
000000b0: 86f0 91be aa94 5f3e 6a92 96bd 1251 f0bd
000000c0: c37d fe3a 7894 f53d 3083 f53d acc4 0ebe
000000d0: ac8a c73d 5080 27be 747d ecbe 5a50 433d
000000e0: f09b f53d d97c fe3d 8ff1 883d 675d 77be
000000f0: 6c5a 63be 4885 0a3e cd11 fdbe 4c6b 493d
00000100: 2625 82be a122 2a3d 2abc 98be 9cc0 323e
00000110: ec83 0f3c ef6f 2b3e 44a9 90be 0d22 cdbe
00000120: daa9 ee3d 6cde 57be 6420 95be 2ad5 c9be
00000130: ab92 0fbf c38a af3d dc2a 27bc 4dba 203e
00000140: a598 833d 35b7 923d 1725 cc3d f23d 2b3e
00000150: 5e4a 283e c715 b0be f804 133d a782 0cbe
00000160: c4b7 23be a839 033e 00a5 14be 9e3e 5bbc
00000170: 9cdc 913d f3aa 8abe 3f1a 49bd 8ed1 b03c
00000180: d190 ffbe e429 0dbf e656 83be 1c9d 323e
00000190: a982 a33c dd51 30be 7a56 da3d 3060 8ebe
000001a0: dba2 c0be 27ca 133e 24a4 78bc 8f4e b73d
000001b0: 912e 55bd 4f45 8fbe 2dd8 62be 10b1 603a
000001c0: 3499 0dbf c326 af3c 44cd 8dbe 533a 143b
000001d0: 0dd0 75be 4c61 13bc 2cf7 c93d e138 313e
000001e0: 6266 75be 8659 e3be 6288 d23d 7d86 54be
000001f0: db14 9ebe 474e 97be feaf e4be 2f11 823b
00000200: 8720 083e 1434 803d 24b7 683d d310 8c3d
00000210: a574 ad3d da07 913c 597c 89bc 40db bebe
00000220: e33d 093d 31e6 28be d5c1 7abe f064 e63c
00000230: 4cc9 1cbe b7d5 e3bd 0f9d 163e a83a 92be
00000240: 20ce 4bbe bd39 c739 81a1 f7be 0fee e4be
00000250: acfc 84be c10e 163d 8cd1 d13c 11c5 ca3d
00000260: b124 41be c5a6 11bd d08b b23b 2c21 80be
00000270: 15f2 21bd d67a 81bd 8df1 c93d 07d4 42bd
00000280: be99 c73c c4f1 a8be d7f5 e83c 7172 babd
00000290: bb02 c2bd d601 70bd 456e e1bd 4b12 37bd
000002a0: 4797 e8bd a5a1 24bd e2fb 943c 723e bebb
000002b0: e85d 01be c50d 6e3c 9e29 7f3b bd25 cbbd
000002c0: 0d23 0cbc b9bd b23d cc90 25be a947 61be
000002d0: 122c 5e3c d4aa 97be 6ee0 7cbd 393e 0fbe
000002e0: cf1b c9bd 715e bcbc 4cfa c3bd 9972 803c
000002f0: 265e 09be 8080 263d 1410 223d 5602 55be
00000300: 2048 d7bd e72b 72be cf4b 2a3d 7a60 a4bd
00000310: 8000 f4bb f9b1 153b 0b45 98bd 9d0f cdbc
00000320: 131d 1d3d 6090 4a3d c564 13be 96c6 483b
00000330: c0ee 97bc 15c0 1fbe 9366 4abd 45ae 57be
00000340: b18c b23d c375 b2bd b7e5 663c e8dc 64be
00000350: ecaf 673c 53df 1bbe 7b05 ecbd 3f89 17bd
00000360: 5afd 0bbe cb74 5fbe f62c 1abe 3111 93bc
00000370: 27bb 503d e54f 293c 112a 223b 5fa0 e03c
00000380: 3fb8 cf3c 4b55 51bd d8a5 093c 02f2 853d
00000390: 1e41 e4bd ed96 06be f797 6abd e546 84be
000003a0: fb3e 06be 1449 43be 4e2b 9ebe 558a 0ebb
000003b0: ce4c b2bd 3653 babb dc77 803a 75e4 ebbd
000003c0: adef 073d 808d 24be 143b 04bd 939f 083c
000003d0: 9f80 223d 6d8b 83bd 6580 833c 4d2d 513c
000003e0: 67bc 86bd 9a36 d2bd 1930 04bf ee10 813c
000003f0: 1f2c b0be 4d0e 27be dcc0 92bc e7f3 85be

fc3.bias f4 [30]
1.6097637 1.0544206 1.1017876 1.500663 1.580681 1.3472135 1.2486626 1.5268028
1.1672426 1.8747604 1.1193309 1.5627561 1.429941 1.3935136 1.6700149 1.7361482
1.3780473 1.5712347 1.269391 1.4830582 0.8033604 1.2738775 1.559628 1.979346
1.3200986 1.5819789 1.2927604 1.1891809 1.6585099 1.7263393
00000000: bd0c ce3f 41f7 863f 6007 8d3f ba15 c03f
00000010: c153 ca3f 7e71 ac3f 2dd4 9f3f 466e c33f
00000020: 3568 953f 26f8 ef3f 3c46 8f3f 6408 c83f
00000030: 4f08 b73f a75e b23f 0cc3 d53f 1b3a de3f
00000040: db63 b03f 381e c93f 677b a23f dad4 bd3f
00000050: 07a9 4d3f 6b0e a33f e4a1 c73f 365b fd3f
00000060: fef8 a83f 497e ca3f 2c79 a53f 1437 983f
00000070: 0d4a d43f b0f8 dc3f

bn3.weight f4 [30]
1.6319137 1.6021307 1.5539354 1.6086435 1.6570466 1.5855333 1.6565498 1.6145247
1.5942341 1.662042 1.6480577 1.595738 1.6395773 1.5863571 1.6523825 1.6291307
1.5998385 1.54808 1.5786835 1.587567 1.0853593 1.6149564 1.6110002 1.7116517
1.6139222 1.6106195 1.6320691 1.6176058 1.6539638 1.668862
00000000: 8ce2 d03f 9e12 cd3f 5be7 c63f 08e8 cd3f
00000010: 1a1a d43f c1f2 ca3f d309 d43f bfa8 ce3f
00000020: dd0f cc3f cbbd d43f 8ef3 d23f 2541 cc3f
00000030: abdd d13f c00d cb3f 4581 d33f 5b87 d03f
00000040: 82c7 cc3f 7c27 c63f 4d12 ca3f 6535 cb3f
00000050: 0eed 8a3f e4b6 ce3f 4135 ce3f 6717 db3f
00000060: 0195 ce3f c828 ce3f a4e7 d03f b50d cf3f
00000070: 16b5 d33f 459d d53f

bn3.bias f4 [30]
1.5154363 1.5370688 1.51444 -1.5837398 -1.5599545 -1.5100548 1.5483762 1.4832196
1.5468982 -1.5370461 1.553932 1.5072507 1.5310864 1.5495297 1.5574895 1.5445534
1.5280452 -1.531462 -1.5109502 -1.512493 -1.541035 -1.4818457 1.503667 -1.5482955
1.4794924 1.563938 -1.5652283 1.563705 -1.5544685 -1.5534604
00000000: d1f9 c13f acbe c43f 2bd9 c13f fcb7 cabf
00000010: 97ac c7bf 7a49 c1bf 3131 c63f 24da bd3f
00000020: c300 c63f edbd c4bf 3ee7 c63f 97ed c03f
00000030: a4fa c33f fd56 c63f d15b c73f edb3 c53f
00000040: fc96 c33f f206 c4bf d166 c1bf 5f99 c1bf
00000050: a340 c5bf 1fad bdbf 2978 c03f 8c2e c6bf
00000060: 0260 bd3f 1f2f c83f 6759 c8bf 7c27 c83f
00000070: d3f8 c6bf cad7 c6bf

bn3.running_mean f4 [30]
1.5580549 1.5616468 1.4240644 1.4373859 1.557054 1.2550888 1.5162481 1.5381436
1.5260612 2.1615844 1.6720248 1.6044385 1.5758573 1.6183676 1.6738113 1.7343913
1.4819529 1.5449831 1.2825428 1.4953192 0.7848594 1.1115876 1.7236373 2.3357022
1.4762586 1.7265546 1.2219895 1.6315274 1.6600482 1.9580513
00000000: 586e c73f 0be4 c73f be47 b63f 43fc b73f
00000010: 8c4d c73f c0a6 a03f 6b14 c23f e4e1 c43f
00000020: f955 c33f 6657 0a40 e904 d63f 3e5e cd3f
00000030: b1b5 c93f ab26 cf3f 733f d63f 8900 de3f
00000040: a2b0 bd3f 02c2 c53f 5d2a a43f 9f66 bf3f
00000050: 8cec 483f 8148 8e3f 26a0 dc3f 257c 1540
00000060: 0bf6 bc3f beff dc3f 276a 9c3f e4d5 d03f
00000070: 767c d43f 6da1 fa3f

bn3.running_var f4 [30]
2.481041 5.9862957 4.012105 0.3812928 0.41046432 0.4964848 4.9494963 2.756258
4.694794 0.36898723 6.652829 2.9105437 4.1815863 4.4341545 3.4225106 2.8993583
3.7118037 0.9770303 0.4935086 0.43624493 0.9143793 0.36282843 3.324586 0.39858496
3.7918954 3.8493097 0.4666195 5.779792 0.37485895 0.33630234
00000000: 60c9 1e40 bc8f bf40 2a63 8040 cf38 c33e
00000010: 6128 d23e 4133 fe3e 4662 9e40 8866 3040
00000020: c13b 9640 e5eb bc3e fae3 d440 5946 3a40
00000030: 8ecf 8540 98e4 8d40 6a0a 5b40 168f 3940
00000040: 318e 6d40 a81e 7a3f 29ad fc3e 7f5b df3e
00000050: c314 6a3f a6c4 b93e 04c6 5440 5413 cc3e
00000060: 6aae 7240 175b 7640 c0e8 ee3e 0ef4 b840
00000070: 83ed bf3e d22f ac3e

out.weight f4 [1, 30]
1.1937875 1.1851861 1.1947186 -1.1658324 -1.1876683 -1.2465748 1.169931 1.2376505
1.1621253 -1.2175483 1.1616286 1.2036868 1.18607 1.1296896 1.1567042 1.1524363
1.1986388 -1.2001379 -1.243916 -1.2413415 -1.0594131 -1.2756338 1.2098781 -1.2069842
1.250809 1.1576242 -1.1698738 1.1600794 -1.1916386 -1.1840053
00000000: 07ce 983f 2eb4 973f 8aec 983f ff39 95bf
00000010: 8405 98bf c38f 9fbf 4dc0 953f 556b 9e3f
00000020: 86c0 943f 9fd8 9bbf 3fb0 943f 6912 9a3f
00000030: 24d1 973f ab99 903f e20e 943f 0883 933f
00000040: ff6c 993f 1e9e 99bf a438 9fbf 47e4 9ebf
00000050: d99a 87bf f847 a3bf 49dd 9a3f 757e 9abf
00000060: 821a a03f 082d 943f 6dbe 95bf 7b7d 943f
00000070: 9d87 98bf 7c8d 97bf
